…
	Batch size per gpu: 4
	World size (gpu number): 1
	Require iter number per epoch: 50
	Total epochs: 4000; iters: 200000.
2025-03-11 14:53:21,000 INFO: Dataset initialized with 50 samples.
2025-03-11 14:53:21,000 INFO: Dataset VoxelnpzPngSingleDeblurDataset - highrev-val is created.
2025-03-11 14:53:21,000 INFO: Number of val images/folders in highrev-val: 50
2025-03-11 14:53:24,699 INFO: Network: KUnet, with parameters: 140,943,581
2025-03-11 14:53:24,699 INFO: KUnet(
  (down1): DownLayer(
    (conv): DoubleConv(
      (conv): Sequential(
        (0): DepthwiseSeparableConv(
          (depthwise): Conv2d(3, 3, kernel_size=(3, 3), stride=(1, 1), padding=(1, 1), groups=3)
          (pointwise): Conv2d(3, 64, kernel_size=(1, 1), stride=(1, 1))
        )
        (1): ConvLayerNorm(
          (layer_norm): LayerNorm((64,), eps=1e-05, elementwise_affine=True)
        )
        (2): ReLU(inplace=True)
        (3): DepthwiseSeparableConv(
          (depthwise): Conv2d(64, 64, kernel_size=(3, 3), stride=(1, 1), padding=(1, 1), groups=64)
          (pointwise): Conv2d(64, 64, kernel_size=(1, 1), stride=(1, 1))
        )
        (4): ConvLayerNorm(
          (layer_norm): LayerNorm((64,), eps=1e-05, elementwise_affine=True)
        )
        (5): ReLU(inplace=True)
      )
    )
    (pool): MaxPool2d(kernel_size=2, stride=2, padding=0, dilation=1, ceil_mode=False)
  )
  (down2): DownLayer(
    (conv): DoubleConv(
      (conv): Sequential(
        (0): DepthwiseSeparableConv(
          (depthwise): Conv2d(64, 64, kernel_size=(3, 3), stride=(1, 1), padding=(1, 1), groups=64)
          (pointwise): Conv2d(64, 128, kernel_size=(1, 1), stride=(1, 1))
        )
        (1): ConvLayerNorm(
          (layer_norm): LayerNorm((128,), eps=1e-05, elementwise_affine=True)
        )
        (2): ReLU(inplace=True)
        (3): DepthwiseSeparableConv(
          (depthwise): Conv2d(128, 128, kernel_size=(3, 3), stride=(1, 1), padding=(1, 1), groups=128)
          (pointwise): Conv2d(128, 128, kernel_size=(1, 1), stride=(1, 1))
        )
        (4): ConvLayerNorm(
          (layer_norm): LayerNorm((128,), eps=1e-05, elementwise_affine=True)
        )
        (5): ReLU(inplace=True)
      )
    )
    (pool): MaxPool2d(kernel_size=2, stride=2, padding=0, dilation=1, ceil_mode=False)
  )
  (down3): DownLayer(
    (conv): DoubleConv(
      (conv): Sequential(
        (0): DepthwiseSeparableConv(
          (depthwise): Conv2d(128, 128, kernel_size=(3, 3), stride=(1, 1), padding=(1, 1), groups=128)
          (pointwise): Conv2d(128, 256, kernel_size=(1, 1), stride=(1, 1))
        )
        (1): ConvLayerNorm(
          (layer_norm): LayerNorm((256,), eps=1e-05, elementwise_affine=True)
        )
        (2): ReLU(inplace=True)
        (3): DepthwiseSeparableConv(
          (depthwise): Conv2d(256, 256, kernel_size=(3, 3), stride=(1, 1), padding=(1, 1), groups=256)
          (pointwise): Conv2d(256, 256, kernel_size=(1, 1), stride=(1, 1))
        )
        (4): ConvLayerNorm(
          (layer_norm): LayerNorm((256,), eps=1e-05, elementwise_affine=True)
        )
        (5): ReLU(inplace=True)
      )
    )
    (pool): MaxPool2d(kernel_size=2, stride=2, padding=0, dilation=1, ceil_mode=False)
  )
  (down4): DownLayer(
    (conv): DoubleConv(
      (conv): Sequential(
        (0): DepthwiseSeparableConv(
          (depthwise): Conv2d(256, 256, kernel_size=(3, 3), stride=(1, 1), padding=(1, 1), groups=256)
          (pointwise): Conv2d(256, 512, kernel_size=(1, 1), stride=(1, 1))
        )
        (1): ConvLayerNorm(
          (layer_norm): LayerNorm((512,), eps=1e-05, elementwise_affine=True)
        )
        (2): ReLU(inplace=True)
        (3): DepthwiseSeparableConv(
          (depthwise): Conv2d(512, 512, kernel_size=(3, 3), stride=(1, 1), padding=(1, 1), groups=512)
          (pointwise): Conv2d(512, 512, kernel_size=(1, 1), stride=(1, 1))
        )
        (4): ConvLayerNorm(
          (layer_norm): LayerNorm((512,), eps=1e-05, elementwise_affine=True)
        )
        (5): ReLU(inplace=True)
      )
    )
    (pool): MaxPool2d(kernel_size=2, stride=2, padding=0, dilation=1, ceil_mode=False)
  )
  (bottleneck): DoubleConv(
    (conv): Sequential(
      (0): DepthwiseSeparableConv(
        (depthwise): Conv2d(512, 512, kernel_size=(3, 3), stride=(1, 1), padding=(1, 1), groups=512)
        (pointwise): Conv2d(512, 1024, kernel_size=(1, 1), stride=(1, 1))
      )
      (1): ConvLayerNorm(
        (layer_norm): LayerNorm((1024,), eps=1e-05, elementwise_affine=True)
      )
      (2): ReLU(inplace=True)
      (3): DepthwiseSeparableConv(
        (depthwise): Conv2d(1024, 1024, kernel_size=(3, 3), stride=(1, 1), padding=(1, 1), groups=1024)
        (pointwise): Conv2d(1024, 1024, kernel_size=(1, 1), stride=(1, 1))
      )
      (4): ConvLayerNorm(
        (layer_norm): LayerNorm((1024,), eps=1e-05, elementwise_affine=True)
      )
      (5): ReLU(inplace=True)
    )
  )
  (event_encoder): EventEncoder(
    (conv1): Sequential(
      (0): DepthwiseSeparableConv(
        (depthwise): Conv2d(6, 6, kernel_size=(3, 3), stride=(2, 2), padding=(1, 1), groups=6)
        (pointwise): Conv2d(6, 64, kernel_size=(1, 1), stride=(1, 1))
      )
      (1): ReLU(inplace=True)
    )
    (conv2): Sequential(
      (0): DepthwiseSeparableConv(
        (depthwise): Conv2d(64, 64, kernel_size=(3, 3), stride=(2, 2), padding=(1, 1), groups=64)
        (pointwise): Conv2d(64, 128, kernel_size=(1, 1), stride=(1, 1))
      )
      (1): ReLU(inplace=True)
    )
    (conv3): Sequential(
      (0): DepthwiseSeparableConv(
        (depthwise): Conv2d(128, 128, kernel_size=(3, 3), stride=(2, 2), padding=(1, 1), groups=128)
        (pointwise): Conv2d(128, 256, kernel_size=(1, 1), stride=(1, 1))
      )
      (1): ReLU(inplace=True)
    )
    (conv4): Sequential(
      (0): DepthwiseSeparableConv(
        (depthwise): Conv2d(256, 256, kernel_size=(3, 3), stride=(2, 2), padding=(1, 1), groups=256)
        (pointwise): Conv2d(256, 512, kernel_size=(1, 1), stride=(1, 1))
      )
      (1): ReLU(inplace=True)
    )
    (conv5): DepthwiseSeparableConv(
      (depthwise): Conv2d(512, 512, kernel_size=(3, 3), stride=(1, 1), padding=(1, 1), groups=512)
      (pointwise): Conv2d(512, 1024, kernel_size=(1, 1), stride=(1, 1))
    )
  )
  (fusion_layer): Conv2d(2048, 1024, kernel_size=(1, 1), stride=(1, 1))
  (tokenizer): PatchTokenizer(
    (proj): Conv2d(1024, 1024, kernel_size=(2, 2), stride=(2, 2))
    (norm): LayerNorm((1024,), eps=1e-05, elementwise_affine=True)
  )
  (self_attention): TokenSelfAttention(
    (attention): MultiheadAttention(
      (out_proj): NonDynamicallyQuantizableLinear(in_features=1024, out_features=1024, bias=True)
    )
    (norm1): LayerNorm((1024,), eps=1e-05, elementwise_affine=True)
    (norm2): LayerNorm((1024,), eps=1e-05, elementwise_affine=True)
    (ff): Sequential(
      (0): Linear(in_features=1024, out_features=4096, bias=True)
      (1): ReLU()
      (2): Linear(in_features=4096, out_features=1024, bias=True)
    )
    (dropout): Dropout(p=0.1, inplace=False)
  )
  (token_projection1): KANLinear(
    (base_activation): SiLU()
  )
  (token_projection2): KANLinear(
    (base_activation): SiLU()
  )
  (token_projection3): KANLinear(
    (base_activation): SiLU()
  )
  (up1): UpLayer(
    (up): Up(
      (up_scale): ConvTranspose2d(1024, 512, kernel_size=(2, 2), stride=(2, 2))
    )
    (conv): DoubleConv(
      (conv): Sequential(
        (0): DepthwiseSeparableConv(
          (depthwise): Conv2d(1024, 1024, kernel_size=(3, 3), stride=(1, 1), padding=(1, 1), groups=1024)
          (pointwise): Conv2d(1024, 512, kernel_size=(1, 1), stride=(1, 1))
        )
        (1): ConvLayerNorm(
          (layer_norm): LayerNorm((512,), eps=1e-05, elementwise_affine=True)
        )
        (2): ReLU(inplace=True)
        (3): DepthwiseSeparableConv(
          (depthwise): Conv2d(512, 512, kernel_size=(3, 3), stride=(1, 1), padding=(1, 1), groups=512)
          (pointwise): Conv2d(512, 512, kernel_size=(1, 1), stride=(1, 1))
        )
        (4): ConvLayerNorm(
          (layer_norm): LayerNorm((512,), eps=1e-05, elementwise_affine=True)
        )
        (5): ReLU(inplace=True)
      )
    )
  )
  (up2): UpLayer(
    (up): Up(
      (up_scale): ConvTranspose2d(512, 256, kernel_size=(2, 2), stride=(2, 2))
    )
    (conv): DoubleConv(
      (conv): Sequential(
        (0): DepthwiseSeparableConv(
          (depthwise): Conv2d(512, 512, kernel_size=(3, 3), stride=(1, 1), padding=(1, 1), groups=512)
          (pointwise): Conv2d(512, 256, kernel_size=(1, 1), stride=(1, 1))
        )
        (1): ConvLayerNorm(
          (layer_norm): LayerNorm((256,), eps=1e-05, elementwise_affine=True)
        )
        (2): ReLU(inplace=True)
        (3): DepthwiseSeparableConv(
          (depthwise): Conv2d(256, 256, kernel_size=(3, 3), stride=(1, 1), padding=(1, 1), groups=256)
          (pointwise): Conv2d(256, 256, kernel_size=(1, 1), stride=(1, 1))
        )
        (4): ConvLayerNorm(
          (layer_norm): LayerNorm((256,), eps=1e-05, elementwise_affine=True)
        )
        (5): ReLU(inplace=True)
      )
    )
  )
  (up3): UpLayer(
    (up): Up(
      (up_scale): ConvTranspose2d(256, 128, kernel_size=(2, 2), stride=(2, 2))
    )
    (conv): DoubleConv(
      (conv): Sequential(
        (0): DepthwiseSeparableConv(
          (depthwise): Conv2d(256, 256, kernel_size=(3, 3), stride=(1, 1), padding=(1, 1), groups=256)
          (pointwise): Conv2d(256, 128, kernel_size=(1, 1), stride=(1, 1))
        )
        (1): ConvLayerNorm(
          (layer_norm): LayerNorm((128,), eps=1e-05, elementwise_affine=True)
        )
        (2): ReLU(inplace=True)
        (3): DepthwiseSeparableConv(
          (depthwise): Conv2d(128, 128, kernel_size=(3, 3), stride=(1, 1), padding=(1, 1), groups=128)
          (pointwise): Conv2d(128, 128, kernel_size=(1, 1), stride=(1, 1))
        )
        (4): ConvLayerNorm(
          (layer_norm): LayerNorm((128,), eps=1e-05, elementwise_affine=True)
        )
        (5): ReLU(inplace=True)
      )
    )
  )
  (up4): UpLayer(
    (up): Up(
      (up_scale): ConvTranspose2d(128, 64, kernel_size=(2, 2), stride=(2, 2))
    )
    (conv): DoubleConv(
      (conv): Sequential(
        (0): DepthwiseSeparableConv(
          (depthwise): Conv2d(128, 128, kernel_size=(3, 3), stride=(1, 1), padding=(1, 1), groups=128)
          (pointwise): Conv2d(128, 64, kernel_size=(1, 1), stride=(1, 1))
        )
        (1): ConvLayerNorm(
          (layer_norm): LayerNorm((64,), eps=1e-05, elementwise_affine=True)
        )
        (2): ReLU(inplace=True)
        (3): DepthwiseSeparableConv(
          (depthwise): Conv2d(64, 64, kernel_size=(3, 3), stride=(1, 1), padding=(1, 1), groups=64)
          (pointwise): Conv2d(64, 64, kernel_size=(1, 1), stride=(1, 1))
        )
        (4): ConvLayerNorm(
          (layer_norm): LayerNorm((64,), eps=1e-05, elementwise_affine=True)
        )
        (5): ReLU(inplace=True)
      )
    )
  )
  (last_conv): Conv2d(64, 3, kernel_size=(1, 1), stride=(1, 1))
)
.. cosineannealingLR
2025-03-11 14:53:24,702 INFO: Model [ImageEventRestorationModel] is created.
2025-03-11 14:53:25,204 INFO: Start training from epoch: 0, iter: 0
/home/ypatel37/.local/share/mamba/envs/ntire_env/lib/python3.9/site-packages/torch/nn/modules/conv.py:456: UserWarning: Applied workaround for CuDNN issue, install nvrtc.so (Triggered internally at ../aten/src/ATen/native/cudnn/Conv_v8.cpp:80.)
…
